…
I20250918 17:18:14 3103889 dinov3 ac_compile_parallelize.py:52] DISTRIBUTED FSDP -- preparing model for distributed training
I20250918 17:18:14 3103889 dinov3 ac_compile_parallelize.py:79] using selective checkpointing on backbone with selective policy
I20250918 17:18:14 3103889 dinov3 train.py:634] Model after distributed:
SSLMetaArch(
  (dino_loss): DINOLoss()
  (koleo_loss): KoLeoLoss(
    (pdist): PairwiseDistance()
  )
  (ibot_patch_loss): iBOTPatchLoss(
    (sinkhorn_knopp_teacher): SinkhornKnoppTeacher()
  )
  (student): ModuleDict(
    (backbone): FSDPDinoVisionTransformer(
      (patch_embed): PatchEmbed(
        (proj): Conv2d(5, 1024, kernel_size=(16, 16), stride=(16, 16))
        (norm): Identity()
      )
      (rope_embed): RopePositionEmbedding()
      (blocks): ModuleList(
        (0-23): 24 x FSDPCheckpointWrapper(
          (_checkpoint_wrapped_module): SelfAttentionBlock(
            (norm1): LayerNorm((1024,), eps=1e-05, elementwise_affine=True)
            (attn): SelfAttention(
              (qkv): Linear(in_features=1024, out_features=3072, bias=True)
              (attn_drop): Dropout(p=0.0, inplace=False)
              (proj): Linear(in_features=1024, out_features=1024, bias=True)
              (proj_drop): Dropout(p=0.0, inplace=False)
            )
            (ls1): LayerScale()
            (norm2): LayerNorm((1024,), eps=1e-05, elementwise_affine=True)
            (mlp): Mlp(
              (fc1): Linear(in_features=1024, out_features=4096, bias=True)
              (act): GELU(approximate='none')
              (fc2): Linear(in_features=4096, out_features=1024, bias=True)
              (drop): Dropout(p=0.0, inplace=False)
            )
            (ls2): LayerScale()
          )
        )
      )
      (norm): LayerNorm((1024,), eps=1e-05, elementwise_affine=True)
      (head): Identity()
    )
    (dino_head): FSDPDINOHead(
      (mlp): Sequential(
        (0): Linear(in_features=1024, out_features=8192, bias=True)
        (1): GELU(approximate='none')
        (2): Linear(in_features=8192, out_features=8192, bias=True)
        (3): GELU(approximate='none')
        (4): Linear(in_features=8192, out_features=512, bias=True)
      )
      (last_layer): Linear(in_features=512, out_features=131072, bias=False)
    )
    (ibot_head): FSDPDINOHead(
      (mlp): Sequential(
        (0): Linear(in_features=1024, out_features=4096, bias=True)
        (1): GELU(approximate='none')
        (2): Linear(in_features=4096, out_features=4096, bias=True)
        (3): GELU(approximate='none')
        (4): Linear(in_features=4096, out_features=384, bias=True)
      )
      (last_layer): Linear(in_features=384, out_features=65536, bias=False)
    )
  )
  (teacher): ModuleDict(
    (backbone): FSDPDinoVisionTransformer(
      (patch_embed): PatchEmbed(
        (proj): Conv2d(5, 1024, kernel_size=(16, 16), stride=(16, 16))
        (norm): Identity()
      )
      (rope_embed): RopePositionEmbedding()
      (blocks): ModuleList(
        (0-23): 24 x FSDPSelfAttentionBlock(
          (norm1): LayerNorm((1024,), eps=1e-05, elementwise_affine=True)
          (attn): SelfAttention(
            (qkv): Linear(in_features=1024, out_features=3072, bias=True)
            (attn_drop): Dropout(p=0.0, inplace=False)
            (proj): Linear(in_features=1024, out_features=1024, bias=True)
            (proj_drop): Dropout(p=0.0, inplace=False)
          )
          (ls1): LayerScale()
          (norm2): LayerNorm((1024,), eps=1e-05, elementwise_affine=True)
          (mlp): Mlp(
            (fc1): Linear(in_features=1024, out_features=4096, bias=True)
            (act): GELU(approximate='none')
            (fc2): Linear(in_features=4096, out_features=1024, bias=True)
            (drop): Dropout(p=0.0, inplace=False)
          )
          (ls2): LayerScale()
        )
      )
      (norm): LayerNorm((1024,), eps=1e-05, elementwise_affine=True)
      (head): Identity()
    )
    (dino_head): FSDPDINOHead(
      (mlp): Sequential(
        (0): Linear(in_features=1024, out_features=8192, bias=True)
        (1): GELU(approximate='none')
        (2): Linear(in_features=8192, out_features=8192, bias=True)
        (3): GELU(approximate='none')
        (4): Linear(in_features=8192, out_features=512, bias=True)
      )
      (last_layer): Linear(in_features=512, out_features=131072, bias=False)
    )
    (ibot_head): FSDPDINOHead(
      (mlp): Sequential(
        (0): Linear(in_features=1024, out_features=4096, bias=True)
        (1): GELU(approximate='none')
        (2): Linear(in_features=4096, out_features=4096, bias=True)
        (3): GELU(approximate='none')
        (4): Linear(in_features=4096, out_features=384, bias=True)
      )
      (last_layer): Linear(in_features=384, out_features=65536, bias=False)
    )
  )
  (model_ema): ModuleDict(
    (backbone): FSDPDinoVisionTransformer(
      (patch_embed): PatchEmbed(
        (proj): Conv2d(5, 1024, kernel_size=(16, 16), stride=(16, 16))
        (norm): Identity()
      )
      (rope_embed): RopePositionEmbedding()
      (blocks): ModuleList(
        (0-23): 24 x FSDPSelfAttentionBlock(
          (norm1): LayerNorm((1024,), eps=1e-05, elementwise_affine=True)
          (attn): SelfAttention(
            (qkv): Linear(in_features=1024, out_features=3072, bias=True)
            (attn_drop): Dropout(p=0.0, inplace=False)
            (proj): Linear(in_features=1024, out_features=1024, bias=True)
            (proj_drop): Dropout(p=0.0, inplace=False)
          )
          (ls1): LayerScale()
          (norm2): LayerNorm((1024,), eps=1e-05, elementwise_affine=True)
          (mlp): Mlp(
            (fc1): Linear(in_features=1024, out_features=4096, bias=True)
            (act): GELU(approximate='none')
            (fc2): Linear(in_features=4096, out_features=1024, bias=True)
            (drop): Dropout(p=0.0, inplace=False)
          )
          (ls2): LayerScale()
        )
      )
      (norm): LayerNorm((1024,), eps=1e-05, elementwise_affine=True)
      (head): Identity()
    )
    (dino_head): FSDPDINOHead(
      (mlp): Sequential(
        (0): Linear(in_features=1024, out_features=8192, bias=True)
        (1): GELU(approximate='none')
        (2): Linear(in_features=8192, out_features=8192, bias=True)
        (3): GELU(approximate='none')
        (4): Linear(in_features=8192, out_features=512, bias=True)
      )
      (last_layer): Linear(in_features=512, out_features=131072, bias=False)
    )
    (ibot_head): FSDPDINOHead(
      (mlp): Sequential(
        (0): Linear(in_features=1024, out_features=4096, bias=True)
        (1): GELU(approximate='none')
        (2): Linear(in_features=4096, out_features=4096, bias=True)
        (3): GELU(approximate='none')
        (4): Linear(in_features=4096, out_features=384, bias=True)
      )
      (last_layer): Linear(in_features=384, out_features=65536, bias=False)
    )
  )
)
I20250918 17:18:14 3103889 dinov3 ssl_meta_arch.py:783] Getting paramer groups for backbone
I20250918 17:18:14 3103889 dinov3 param_groups.py:168] cls_token: lr_multiplier: 0.27738957312183377, wd_multiplier: 1.0
I20250918 17:18:14 3103889 dinov3 param_groups.py:168] mask_token: lr_multiplier: 0.27738957312183377, wd_multiplier: 1.0
I20250918 17:18:14 3103889 dinov3 param_groups.py:168] patch_embed.proj.weight: lr_multiplier: 0.06934739328045844, wd_multiplier: 1.0
…
